…
    policy='step', by_epoch=False, gamma=0.5, step=[200000, 300000, 400000])
runner = dict(type='IterBasedRunner', max_iters=500000)
checkpoint_config = dict(by_epoch=False, interval=10000)
evaluation = dict(interval=10000, metric='EPE')
work_dir = 'work_dir/pwcnet_caddy_freezed_08'
auto_resume = False
gpu_ids = [0]

2022-10-08 20:56:58,062 - mmflow - INFO - Set random seed to 278185748, deterministic: False
2022-10-08 20:56:58,236 - mmflow - INFO - LiteFlowNet(
  (encoder): NetC(
    (layers): Sequential(
      (0): BasicConvBlock(
        (layers): Sequential(
          (0): ConvModule(
            (conv): Conv2d(3, 32, kernel_size=(7, 7), stride=(1, 1), padding=(3, 3))
            (activate): LeakyReLU(negative_slope=0.1, inplace=True)
          )
        )
      )
      (1): BasicConvBlock(
        (layers): Sequential(
          (0): ConvModule(
            (conv): Conv2d(32, 32, kernel_size=(3, 3), stride=(2, 2), padding=(1, 1))
            (activate): LeakyReLU(negative_slope=0.1, inplace=True)
          )
          (1): ConvModule(
            (conv): Conv2d(32, 32, kernel_size=(3, 3), stride=(1, 1), padding=(1, 1))
            (activate): LeakyReLU(negative_slope=0.1, inplace=True)
          )
          (2): ConvModule(
            (conv): Conv2d(32, 32, kernel_size=(3, 3), stride=(1, 1), padding=(1, 1))
            (activate): LeakyReLU(negative_slope=0.1, inplace=True)
          )
        )
      )
      (2): BasicConvBlock(
        (layers): Sequential(
          (0): ConvModule(
            (conv): Conv2d(32, 64, kernel_size=(3, 3), stride=(2, 2), padding=(1, 1))
            (activate): LeakyReLU(negative_slope=0.1, inplace=True)
          )
          (1): ConvModule(
            (conv): Conv2d(64, 64, kernel_size=(3, 3), stride=(1, 1), padding=(1, 1))
            (activate): LeakyReLU(negative_slope=0.1, inplace=True)
          )
        )
      )
      (3): BasicConvBlock(
        (layers): Sequential(
          (0): ConvModule(
            (conv): Conv2d(64, 96, kernel_size=(3, 3), stride=(2, 2), padding=(1, 1))
            (activate): LeakyReLU(negative_slope=0.1, inplace=True)
          )
          (1): ConvModule(
            (conv): Conv2d(96, 96, kernel_size=(3, 3), stride=(1, 1), padding=(1, 1))
            (activate): LeakyReLU(negative_slope=0.1, inplace=True)
          )
        )
      )
      (4): BasicConvBlock(
        (layers): Sequential(
          (0): ConvModule(
            (conv): Conv2d(96, 128, kernel_size=(3, 3), stride=(2, 2), padding=(1, 1))
            (activate): LeakyReLU(negative_slope=0.1, inplace=True)
          )
        )
      )
      (5): BasicConvBlock(
        (layers): Sequential(
          (0): ConvModule(
            (conv): Conv2d(128, 192, kernel_size=(3, 3), stride=(2, 2), padding=(1, 1))
            (activate): LeakyReLU(negative_slope=0.1, inplace=True)
          )
        )
      )
    )
  )
  (decoder): NetE(
    (flow_loss): MultiLevelCharbonnierLoss(resize_flow=upsample, scale_as_level=False, flow_div=20.0, weights={'level6': 0.32, 'level5': 0.08, 'level4': 0.02, 'level3': 0.01, 'level0': 0.000625}, q=0.2, eps=0.01, reduction='sum')
    (decoders): ModuleDict(
      (level3): ModuleDict(
        (feat_layer): Sequential()
        (rfeat_layer): ConvModule(
          (conv): Conv2d(64, 128, kernel_size=(1, 1), stride=(1, 1))
          (activate): LeakyReLU(negative_slope=0.1, inplace=True)
        )
        (NetM): MatchingBlock(
          (layers): Sequential(
            (0): ConvModule(
              (conv): Conv2d(49, 128, kernel_size=(3, 3), stride=(1, 1), padding=(1, 1))
              (activate): LeakyReLU(negative_slope=0.1, inplace=True)
            )
            (1): ConvModule(
              (conv): Conv2d(128, 128, kernel_size=(3, 3), stride=(1, 1), padding=(1, 1))
              (activate): LeakyReLU(negative_slope=0.1, inplace=True)
            )
            (2): ConvModule(
              (conv): Conv2d(128, 96, kernel_size=(3, 3), stride=(1, 1), padding=(1, 1))
              (activate): LeakyReLU(negative_slope=0.1, inplace=True)
            )
            (3): ConvModule(
              (conv): Conv2d(96, 64, kernel_size=(3, 3), stride=(1, 1), padding=(1, 1))
              (activate): LeakyReLU(negative_slope=0.1, inplace=True)
            )
            (4): ConvModule(
              (conv): Conv2d(64, 32, kernel_size=(3, 3), stride=(1, 1), padding=(1, 1))
              (activate): LeakyReLU(negative_slope=0.1, inplace=True)
            )
          )
          (warp_op): Warp(mode=bilinear, padding_mode=zeros, align_corners=True,use_mask=True)
          (pred_flow): Conv2d(32, 2, kernel_size=(5, 5), stride=(1, 1), padding=(2, 2))
          (corr): CorrBlock()
          scaled=False
          scale_mode=dimension
          (corr_up): Upsample()
        )
        (NetS): SubpixelBlock(
          (layers): Sequential(
            (0): ConvModule(
              (conv): Conv2d(130, 128, kernel_size=(3, 3), stride=(1, 1), padding=(1, 1))
              (activate): LeakyReLU(negative_slope=0.1, inplace=True)
            )
            (1): ConvModule(
              (conv): Conv2d(128, 128, kernel_size=(3, 3), stride=(1, 1), padding=(1, 1))
              (activate): LeakyReLU(negative_slope=0.1, inplace=True)
            )
            (2): ConvModule(
              (conv): Conv2d(128, 96, kernel_size=(3, 3), stride=(1, 1), padding=(1, 1))
              (activate): LeakyReLU(negative_slope=0.1, inplace=True)
            )
            (3): ConvModule(
              (conv): Conv2d(96, 64, kernel_size=(3, 3), stride=(1, 1), padding=(1, 1))
              (activate): LeakyReLU(negative_slope=0.1, inplace=True)
            )
            (4): ConvModule(
              (conv): Conv2d(64, 32, kernel_size=(3, 3), stride=(1, 1), padding=(1, 1))
              (activate): LeakyReLU(negative_slope=0.1, inplace=True)
            )
          )
          (warp_op): Warp(mode=bilinear, padding_mode=zeros, align_corners=True,use_mask=True)
          (pred_flow): Conv2d(32, 2, kernel_size=(5, 5), stride=(1, 1), padding=(2, 2))
        )
        (NetR): RegularizationBlock(
          (layers): Sequential(
            (0): ConvModule(
              (conv): Conv2d(131, 128, kernel_size=(3, 3), stride=(1, 1), padding=(1, 1))
              (activate): LeakyReLU(negative_slope=0.1, inplace=True)
            )
            (1): ConvModule(
              (conv): Conv2d(128, 128, kernel_size=(3, 3), stride=(1, 1), padding=(1, 1))
              (activate): LeakyReLU(negative_slope=0.1, inplace=True)
            )
            (2): ConvModule(
              (conv): Conv2d(128, 64, kernel_size=(3, 3), stride=(1, 1), padding=(1, 1))
              (activate): LeakyReLU(negative_slope=0.1, inplace=True)
            )
            (3): ConvModule(
              (conv): Conv2d(64, 64, kernel_size=(3, 3), stride=(1, 1), padding=(1, 1))
              (activate): LeakyReLU(negative_slope=0.1, inplace=True)
            )
            (4): ConvModule(
              (conv): Conv2d(64, 32, kernel_size=(3, 3), stride=(1, 1), padding=(1, 1))
              (activate): LeakyReLU(negative_slope=0.1, inplace=True)
            )
            (5): ConvModule(
              (conv): Conv2d(32, 32, kernel_size=(3, 3), stride=(1, 1), padding=(1, 1))
              (activate): LeakyReLU(negative_slope=0.1, inplace=True)
            )
          )
          (warp_op): Warp(mode=bilinear, padding_mode=zeros, align_corners=True,use_mask=True)
          (dist_layer): Sequential(
            (0): Conv2d(32, 25, kernel_size=(5, 1), stride=(1, 1), padding=(2, 0))
            (1): Conv2d(25, 25, kernel_size=(1, 5), stride=(1, 1), padding=(0, 2))
          )
        )
        (upflow_layer): Sequential()
      )
      (level4): ModuleDict(
        (feat_layer): Sequential()
        (rfeat_layer): ConvModule(
          (conv): Conv2d(96, 128, kernel_size=(1, 1), stride=(1, 1))
          (activate): LeakyReLU(negative_slope=0.1, inplace=True)
        )
        (NetM): MatchingBlock(
          (layers): Sequential(
            (0): ConvModule(
              (conv): Conv2d(49, 128, kernel_size=(3, 3), stride=(1, 1), padding=(1, 1))
              (activate): LeakyReLU(negative_slope=0.1, inplace=True)
            )
            (1): ConvModule(
              (conv): Conv2d(128, 128, kernel_size=(3, 3), stride=(1, 1), padding=(1, 1))
              (activate): LeakyReLU(negative_slope=0.1, inplace=True)
            )
            (2): ConvModule(
              (conv): Conv2d(128, 96, kernel_size=(3, 3), stride=(1, 1), padding=(1, 1))
              (activate): LeakyReLU(negative_slope=0.1, inplace=True)
            )
            (3): ConvModule(
              (conv): Conv2d(96, 64, kernel_size=(3, 3), stride=(1, 1), padding=(1, 1))
              (activate): LeakyReLU(negative_slope=0.1, inplace=True)
            )
            (4): ConvModule(
              (conv): Conv2d(64, 32, kernel_size=(3, 3), stride=(1, 1), padding=(1, 1))
              (activate): LeakyReLU(negative_slope=0.1, inplace=True)
            )
          )
          (warp_op): Warp(mode=bilinear, padding_mode=zeros, align_corners=True,use_mask=True)
          (pred_flow): Conv2d(32, 2, kernel_size=(5, 5), stride=(1, 1), padding=(2, 2))
          (corr): CorrBlock()
          scaled=False
          scale_mode=dimension
          (corr_up): Sequential()
        )
        (NetS): SubpixelBlock(
          (layers): Sequential(
            (0): ConvModule(
              (conv): Conv2d(194, 128, kernel_size=(3, 3), stride=(1, 1), padding=(1, 1))
              (activate): LeakyReLU(negative_slope=0.1, inplace=True)
            )
            (1): ConvModule(
              (conv): Conv2d(128, 128, kernel_size=(3, 3), stride=(1, 1), padding=(1, 1))
              (activate): LeakyReLU(negative_slope=0.1, inplace=True)
            )
            (2): ConvModule(
              (conv): Conv2d(128, 96, kernel_size=(3, 3), stride=(1, 1), padding=(1, 1))
              (activate): LeakyReLU(negative_slope=0.1, inplace=True)
            )
            (3): ConvModule(
              (conv): Conv2d(96, 64, kernel_size=(3, 3), stride=(1, 1), padding=(1, 1))
              (activate): LeakyReLU(negative_slope=0.1, inplace=True)
            )
            (4): ConvModule(
              (conv): Conv2d(64, 32, kernel_size=(3, 3), stride=(1, 1), padding=(1, 1))
              (activate): LeakyReLU(negative_slope=0.1, inplace=True)
            )
          )
          (warp_op): Warp(mode=bilinear, padding_mode=zeros, align_corners=True,use_mask=True)
          (pred_flow): Conv2d(32, 2, kernel_size=(5, 5), stride=(1, 1), padding=(2, 2))
        )
        (NetR): RegularizationBlock(
          (layers): Sequential(
            (0): ConvModule(
              (conv): Conv2d(131, 128, kernel_size=(3, 3), stride=(1, 1), padding=(1, 1))
              (activate): LeakyReLU(negative_slope=0.1, inplace=True)
            )
            (1): ConvModule(
              (conv): Conv2d(128, 128, kernel_size=(3, 3), stride=(1, 1), padding=(1, 1))
              (activate): LeakyReLU(negative_slope=0.1, inplace=True)
            )
            (2): ConvModule(
              (conv): Conv2d(128, 64, kernel_size=(3, 3), stride=(1, 1), padding=(1, 1))
              (activate): LeakyReLU(negative_slope=0.1, inplace=True)
            )
            (3): ConvModule(
              (conv): Conv2d(64, 64, kernel_size=(3, 3), stride=(1, 1), padding=(1, 1))
              (activate): LeakyReLU(negative_slope=0.1, inplace=True)
            )
            (4): ConvModule(
              (conv): Conv2d(64, 32, kernel_size=(3, 3), stride=(1, 1), padding=(1, 1))
              (activate): LeakyReLU(negative_slope=0.1, inplace=True)
            )
            (5): ConvModule(
              (conv): Conv2d(32, 32, kernel_size=(3, 3), stride=(1, 1), padding=(1, 1))
              (activate): LeakyReLU(negative_slope=0.1, inplace=True)
            )
          )
          (warp_op): Warp(mode=bilinear, padding_mode=zeros, align_corners=True,use_mask=True)
          (dist_layer): Sequential(
            (0): Conv2d(32, 25, kernel_size=(5, 1), stride=(1, 1), padding=(2, 0))
            (1): Conv2d(25, 25, kernel_size=(1, 5), stride=(1, 1), padding=(0, 2))
          )
        )
        (upflow_layer): Upsample()
      )
      (level5): ModuleDict(
        (feat_layer): Sequential()
        (rfeat_layer): Sequential()
        (NetM): MatchingBlock(
          (layers): Sequential(
            (0): ConvModule(
              (conv): Conv2d(49, 128, kernel_size=(3, 3), stride=(1, 1), padding=(1, 1))
              (activate): LeakyReLU(negative_slope=0.1, inplace=True)
            )
            (1): ConvModule(
              (conv): Conv2d(128, 128, kernel_size=(3, 3), stride=(1, 1), padding=(1, 1))
              (activate): LeakyReLU(negative_slope=0.1, inplace=True)
            )
            (2): ConvModule(
              (conv): Conv2d(128, 96, kernel_size=(3, 3), stride=(1, 1), padding=(1, 1))
              (activate): LeakyReLU(negative_slope=0.1, inplace=True)
            )
            (3): ConvModule(
              (conv): Conv2d(96, 64, kernel_size=(3, 3), stride=(1, 1), padding=(1, 1))
              (activate): LeakyReLU(negative_slope=0.1, inplace=True)
            )
            (4): ConvModule(
              (conv): Conv2d(64, 32, kernel_size=(3, 3), stride=(1, 1), padding=(1, 1))
              (activate): LeakyReLU(negative_slope=0.1, inplace=True)
            )
          )
          (warp_op): Warp(mode=bilinear, padding_mode=zeros, align_corners=True,use_mask=True)
          (pred_flow): Conv2d(32, 2, kernel_size=(3, 3), stride=(1, 1), padding=(1, 1))
          (corr): CorrBlock()
          scaled=False
          scale_mode=dimension
          (corr_up): Sequential()
        )
        (NetS): SubpixelBlock(
          (layers): Sequential(
            (0): ConvModule(
              (conv): Conv2d(258, 128, kernel_size=(3, 3), stride=(1, 1), padding=(1, 1))
              (activate): LeakyReLU(negative_slope=0.1, inplace=True)
            )
            (1): ConvModule(
              (conv): Conv2d(128, 128, kernel_size=(3, 3), stride=(1, 1), padding=(1, 1))
              (activate): LeakyReLU(negative_slope=0.1, inplace=True)
            )
            (2): ConvModule(
              (conv): Conv2d(128, 96, kernel_size=(3, 3), stride=(1, 1), padding=(1, 1))
              (activate): LeakyReLU(negative_slope=0.1, inplace=True)
            )
            (3): ConvModule(
              (conv): Conv2d(96, 64, kernel_size=(3, 3), stride=(1, 1), padding=(1, 1))
              (activate): LeakyReLU(negative_slope=0.1, inplace=True)
            )
            (4): ConvModule(
              (conv): Conv2d(64, 32, kernel_size=(3, 3), stride=(1, 1), padding=(1, 1))
              (activate): LeakyReLU(negative_slope=0.1, inplace=True)
            )
          )
          (warp_op): Warp(mode=bilinear, padding_mode=zeros, align_corners=True,use_mask=True)
          (pred_flow): Conv2d(32, 2, kernel_size=(3, 3), stride=(1, 1), padding=(1, 1))
        )
        (NetR): RegularizationBlock(
          (layers): Sequential(
            (0): ConvModule(
              (conv): Conv2d(131, 128, kernel_size=(3, 3), stride=(1, 1), padding=(1, 1))
              (activate): LeakyReLU(negative_slope=0.1, inplace=True)
            )
            (1): ConvModule(
              (conv): Conv2d(128, 128, kernel_size=(3, 3), stride=(1, 1), padding=(1, 1))
              (activate): LeakyReLU(negative_slope=0.1, inplace=True)
            )
            (2): ConvModule(
              (conv): Conv2d(128, 64, kernel_size=(3, 3), stride=(1, 1), padding=(1, 1))
              (activate): LeakyReLU(negative_slope=0.1, inplace=True)
            )
            (3): ConvModule(
              (conv): Conv2d(64, 64, kernel_size=(3, 3), stride=(1, 1), padding=(1, 1))
              (activate): LeakyReLU(negative_slope=0.1, inplace=True)
            )
            (4): ConvModule(
              (conv): Conv2d(64, 32, kernel_size=(3, 3), stride=(1, 1), padding=(1, 1))
              (activate): LeakyReLU(negative_slope=0.1, inplace=True)
            )
            (5): ConvModule(
              (conv): Conv2d(32, 32, kernel_size=(3, 3), stride=(1, 1), padding=(1, 1))
              (activate): LeakyReLU(negative_slope=0.1, inplace=True)
            )
          )
          (warp_op): Warp(mode=bilinear, padding_mode=zeros, align_corners=True,use_mask=True)
          (dist_layer): Conv2d(32, 9, kernel_size=(3, 3), stride=(1, 1), padding=(1, 1))
        )
        (upflow_layer): Upsample()
      )
      (level6): ModuleDict(
        (feat_layer): Sequential()
        (rfeat_layer): Sequential()
        (NetM): MatchingBlock(
          (layers): Sequential(
            (0): ConvModule(
              (conv): Conv2d(49, 128, kernel_size=(3, 3), stride=(1, 1), padding=(1, 1))
              (activate): LeakyReLU(negative_slope=0.1, inplace=True)
            )
            (1): ConvModule(
              (conv): Conv2d(128, 128, kernel_size=(3, 3), stride=(1, 1), padding=(1, 1))
              (activate): LeakyReLU(negative_slope=0.1, inplace=True)
            )
            (2): ConvModule(
              (conv): Conv2d(128, 96, kernel_size=(3, 3), stride=(1, 1), padding=(1, 1))
              (activate): LeakyReLU(negative_slope=0.1, inplace=True)
            )
            (3): ConvModule(
              (conv): Conv2d(96, 64, kernel_size=(3, 3), stride=(1, 1), padding=(1, 1))
              (activate): LeakyReLU(negative_slope=0.1, inplace=True)
            )
            (4): ConvModule(
              (conv): Conv2d(64, 32, kernel_size=(3, 3), stride=(1, 1), padding=(1, 1))
              (activate): LeakyReLU(negative_slope=0.1, inplace=True)
            )
          )
          (warp_op): Warp(mode=bilinear, padding_mode=zeros, align_corners=True,use_mask=True)
          (pred_flow): Conv2d(32, 2, kernel_size=(3, 3), stride=(1, 1), padding=(1, 1))
          (corr): CorrBlock()
          scaled=False
          scale_mode=dimension
          (corr_up): Sequential()
        )
        (NetS): SubpixelBlock(
          (layers): Sequential(
            (0): ConvModule(
              (conv): Conv2d(386, 128, kernel_size=(3, 3), stride=(1, 1), padding=(1, 1))
              (activate): LeakyReLU(negative_slope=0.1, inplace=True)
            )
            (1): ConvModule(
              (conv): Conv2d(128, 128, kernel_size=(3, 3), stride=(1, 1), padding=(1, 1))
              (activate): LeakyReLU(negative_slope=0.1, inplace=True)
            )
            (2): ConvModule(
              (conv): Conv2d(128, 96, kernel_size=(3, 3), stride=(1, 1), padding=(1, 1))
              (activate): LeakyReLU(negative_slope=0.1, inplace=True)
            )
            (3): ConvModule(
              (conv): Conv2d(96, 64, kernel_size=(3, 3), stride=(1, 1), padding=(1, 1))
              (activate): LeakyReLU(negative_slope=0.1, inplace=True)
            )
            (4): ConvModule(
              (conv): Conv2d(64, 32, kernel_size=(3, 3), stride=(1, 1), padding=(1, 1))
              (activate): LeakyReLU(negative_slope=0.1, inplace=True)
            )
          )
          (warp_op): Warp(mode=bilinear, padding_mode=zeros, align_corners=True,use_mask=True)
          (pred_flow): Conv2d(32, 2, kernel_size=(3, 3), stride=(1, 1), padding=(1, 1))
        )
        (NetR): RegularizationBlock(
          (layers): Sequential(
            (0): ConvModule(
              (conv): Conv2d(195, 128, kernel_size=(3, 3), stride=(1, 1), padding=(1, 1))
              (activate): LeakyReLU(negative_slope=0.1, inplace=True)
            )
            (1): ConvModule(
              (conv): Conv2d(128, 128, kernel_size=(3, 3), stride=(1, 1), padding=(1, 1))
              (activate): LeakyReLU(negative_slope=0.1, inplace=True)
            )
            (2): ConvModule(
              (conv): Conv2d(128, 64, kernel_size=(3, 3), stride=(1, 1), padding=(1, 1))
              (activate): LeakyReLU(negative_slope=0.1, inplace=True)
            )
            (3): ConvModule(
              (conv): Conv2d(64, 64, kernel_size=(3, 3), stride=(1, 1), padding=(1, 1))
              (activate): LeakyReLU(negative_slope=0.1, inplace=True)
            )
            (4): ConvModule(
              (conv): Conv2d(64, 32, kernel_size=(3, 3), stride=(1, 1), padding=(1, 1))
              (activate): LeakyReLU(negative_slope=0.1, inplace=True)
            )
            (5): ConvModule(
              (conv): Conv2d(32, 32, kernel_size=(3, 3), stride=(1, 1), padding=(1, 1))
              (activate): LeakyReLU(negative_slope=0.1, inplace=True)
            )
          )
          (warp_op): Warp(mode=bilinear, padding_mode=zeros, align_corners=True,use_mask=True)
          (dist_layer): Conv2d(32, 9, kernel_size=(3, 3), stride=(1, 1), padding=(1, 1))
        )
        (upflow_layer): Upsample()
      )
    )
  )
)
2022-10-08 20:56:59,395 - mmflow - INFO - dataset size 490
/home/s.starace/FlowNets/mmflow/mmflow/apis/train.py:150: UserWarning: SyncBN is only supported with DDP. To be compatible with DP, we convert SyncBN to BN. Please use dist_train.sh which can avoid this error.
  warnings.warn(
…
