…
2022-10-16 17:44:42,391 - mmflow - INFO - Set random seed to 1820531486, deterministic: False
2022-10-16 17:44:42,470 - mmflow - INFO - initialize RAFTEncoder with init_cfg [{'type': 'Kaiming', 'layer': ['Conv2d'], 'mode': 'fan_out', 'nonlinearity': 'relu'}, {'type': 'Constant', 'layer': ['InstanceNorm2d'], 'val': 1, 'bias': 0}]
2022-10-16 17:44:42,530 - mmflow - INFO - initialize RAFTEncoder with init_cfg [{'type': 'Kaiming', 'layer': ['Conv2d'], 'mode': 'fan_out', 'nonlinearity': 'relu'}, {'type': 'Constant', 'layer': ['SyncBatchNorm2d'], 'val': 1, 'bias': 0}]
2022-10-16 17:44:42,547 - mmflow - INFO - RAFT(
  (encoder): RAFTEncoder(
    (conv1): Conv2d(3, 64, kernel_size=(7, 7), stride=(2, 2), padding=(3, 3))
    (in1): InstanceNorm2d(64, eps=1e-05, momentum=0.1, affine=False, track_running_stats=False)
    (relu): ReLU(inplace=True)
    (res_layer1): ResLayer(
      (0): BasicBlock(
        (conv1): Conv2d(64, 64, kernel_size=(3, 3), stride=(1, 1), padding=(1, 1))
        (in1): InstanceNorm2d(64, eps=1e-05, momentum=0.1, affine=False, track_running_stats=False)
        (conv2): Conv2d(64, 64, kernel_size=(3, 3), stride=(1, 1), padding=(1, 1))
        (in2): InstanceNorm2d(64, eps=1e-05, momentum=0.1, affine=False, track_running_stats=False)
        (relu): ReLU()
      )
      (1): BasicBlock(
        (conv1): Conv2d(64, 64, kernel_size=(3, 3), stride=(1, 1), padding=(1, 1))
        (in1): InstanceNorm2d(64, eps=1e-05, momentum=0.1, affine=False, track_running_stats=False)
        (conv2): Conv2d(64, 64, kernel_size=(3, 3), stride=(1, 1), padding=(1, 1))
        (in2): InstanceNorm2d(64, eps=1e-05, momentum=0.1, affine=False, track_running_stats=False)
        (relu): ReLU()
      )
    )
    (conv2): Conv2d(128, 256, kernel_size=(1, 1), stride=(1, 1))
    (res_layer2): ResLayer(
      (0): BasicBlock(
        (conv1): Conv2d(64, 96, kernel_size=(3, 3), stride=(2, 2), padding=(1, 1))
        (in1): InstanceNorm2d(96, eps=1e-05, momentum=0.1, affine=False, track_running_stats=False)
        (conv2): Conv2d(96, 96, kernel_size=(3, 3), stride=(1, 1), padding=(1, 1))
        (in2): InstanceNorm2d(96, eps=1e-05, momentum=0.1, affine=False, track_running_stats=False)
        (relu): ReLU()
        (downsample): Sequential(
          (0): Conv2d(64, 96, kernel_size=(1, 1), stride=(2, 2))
          (1): InstanceNorm2d(96, eps=1e-05, momentum=0.1, affine=False, track_running_stats=False)
        )
      )
      (1): BasicBlock(
        (conv1): Conv2d(96, 96, kernel_size=(3, 3), stride=(1, 1), padding=(1, 1))
        (in1): InstanceNorm2d(96, eps=1e-05, momentum=0.1, affine=False, track_running_stats=False)
        (conv2): Conv2d(96, 96, kernel_size=(3, 3), stride=(1, 1), padding=(1, 1))
        (in2): InstanceNorm2d(96, eps=1e-05, momentum=0.1, affine=False, track_running_stats=False)
        (relu): ReLU()
      )
    )
    (res_layer3): ResLayer(
      (0): BasicBlock(
        (conv1): Conv2d(96, 128, kernel_size=(3, 3), stride=(2, 2), padding=(1, 1))
        (in1): InstanceNorm2d(128, eps=1e-05, momentum=0.1, affine=False, track_running_stats=False)
        (conv2): Conv2d(128, 128, kernel_size=(3, 3), stride=(1, 1), padding=(1, 1))
        (in2): InstanceNorm2d(128, eps=1e-05, momentum=0.1, affine=False, track_running_stats=False)
        (relu): ReLU()
        (downsample): Sequential(
          (0): Conv2d(96, 128, kernel_size=(1, 1), stride=(2, 2))
          (1): InstanceNorm2d(128, eps=1e-05, momentum=0.1, affine=False, track_running_stats=False)
        )
      )
      (1): BasicBlock(
        (conv1): Conv2d(128, 128, kernel_size=(3, 3), stride=(1, 1), padding=(1, 1))
        (in1): InstanceNorm2d(128, eps=1e-05, momentum=0.1, affine=False, track_running_stats=False)
        (conv2): Conv2d(128, 128, kernel_size=(3, 3), stride=(1, 1), padding=(1, 1))
        (in2): InstanceNorm2d(128, eps=1e-05, momentum=0.1, affine=False, track_running_stats=False)
        (relu): ReLU()
      )
    )
  )
  init_cfg=[{'type': 'Kaiming', 'layer': ['Conv2d'], 'mode': 'fan_out', 'nonlinearity': 'relu'}, {'type': 'Constant', 'layer': ['InstanceNorm2d'], 'val': 1, 'bias': 0}]
  (decoder): RAFTDecoder(
    (corr_block): CorrelationPyramid(
      (pool): AvgPool2d(kernel_size=2, stride=2, padding=0)
    )
    (corr_lookup): CorrLookup()
    (encoder): MotionEncoder(
      (corr_net): Sequential(
        (0): ConvModule(
          (conv): Conv2d(324, 256, kernel_size=(1, 1), stride=(1, 1))
          (activate): ReLU(inplace=True)
        )
        (1): ConvModule(
          (conv): Conv2d(256, 192, kernel_size=(3, 3), stride=(1, 1), padding=(1, 1))
          (activate): ReLU(inplace=True)
        )
      )
      (flow_net): Sequential(
        (0): ConvModule(
          (conv): Conv2d(2, 128, kernel_size=(7, 7), stride=(1, 1), padding=(3, 3))
          (activate): ReLU(inplace=True)
        )
        (1): ConvModule(
          (conv): Conv2d(128, 64, kernel_size=(3, 3), stride=(1, 1), padding=(1, 1))
          (activate): ReLU(inplace=True)
        )
      )
      (out_net): Sequential(
        (0): ConvModule(
          (conv): Conv2d(256, 126, kernel_size=(3, 3), stride=(1, 1), padding=(1, 1))
          (activate): ReLU(inplace=True)
        )
      )
    )
    (gru): ConvGRU(
      (conv_z): ModuleList(
        (0): ConvModule(
          (conv): Conv2d(384, 128, kernel_size=(1, 5), stride=(1, 1), padding=(0, 2))
          (activate): Sigmoid()
        )
        (1): ConvModule(
          (conv): Conv2d(384, 128, kernel_size=(5, 1), stride=(1, 1), padding=(2, 0))
          (activate): Sigmoid()
        )
      )
      (conv_r): ModuleList(
        (0): ConvModule(
          (conv): Conv2d(384, 128, kernel_size=(1, 5), stride=(1, 1), padding=(0, 2))
          (activate): Sigmoid()
        )
        (1): ConvModule(
          (conv): Conv2d(384, 128, kernel_size=(5, 1), stride=(1, 1), padding=(2, 0))
          (activate): Sigmoid()
        )
      )
      (conv_q): ModuleList(
        (0): ConvModule(
          (conv): Conv2d(384, 128, kernel_size=(1, 5), stride=(1, 1), padding=(0, 2))
          (activate): Tanh()
        )
        (1): ConvModule(
          (conv): Conv2d(384, 128, kernel_size=(5, 1), stride=(1, 1), padding=(2, 0))
          (activate): Tanh()
        )
      )
    )
    (flow_pred): XHead(
      (layers): Sequential(
        (0): ConvModule(
          (conv): Conv2d(128, 256, kernel_size=(3, 3), stride=(1, 1), padding=(1, 1))
          (activate): ReLU(inplace=True)
        )
      )
      (predict_layer): Conv2d(256, 2, kernel_size=(3, 3), stride=(1, 1), padding=(1, 1))
    )
    (mask_pred): XHead(
      (layers): Sequential(
        (0): ConvModule(
          (conv): Conv2d(128, 256, kernel_size=(3, 3), stride=(1, 1), padding=(1, 1))
          (activate): ReLU(inplace=True)
        )
      )
      (predict_layer): Conv2d(256, 576, kernel_size=(1, 1), stride=(1, 1))
    )
    (flow_loss): SequenceLoss()
  )
  (context): RAFTEncoder(
    (conv1): Conv2d(3, 64, kernel_size=(7, 7), stride=(2, 2), padding=(3, 3))
    (bn1): SyncBatchNorm(64, eps=1e-05, momentum=0.1, affine=True, track_running_stats=True)
    (relu): ReLU(inplace=True)
    (res_layer1): ResLayer(
      (0): BasicBlock(
        (conv1): Conv2d(64, 64, kernel_size=(3, 3), stride=(1, 1), padding=(1, 1))
        (bn1): SyncBatchNorm(64, eps=1e-05, momentum=0.1, affine=True, track_running_stats=True)
        (conv2): Conv2d(64, 64, kernel_size=(3, 3), stride=(1, 1), padding=(1, 1))
        (bn2): SyncBatchNorm(64, eps=1e-05, momentum=0.1, affine=True, track_running_stats=True)
        (relu): ReLU()
      )
      (1): BasicBlock(
        (conv1): Conv2d(64, 64, kernel_size=(3, 3), stride=(1, 1), padding=(1, 1))
        (bn1): SyncBatchNorm(64, eps=1e-05, momentum=0.1, affine=True, track_running_stats=True)
        (conv2): Conv2d(64, 64, kernel_size=(3, 3), stride=(1, 1), padding=(1, 1))
        (bn2): SyncBatchNorm(64, eps=1e-05, momentum=0.1, affine=True, track_running_stats=True)
        (relu): ReLU()
      )
    )
    (conv2): Conv2d(128, 256, kernel_size=(1, 1), stride=(1, 1))
    (res_layer2): ResLayer(
      (0): BasicBlock(
        (conv1): Conv2d(64, 96, kernel_size=(3, 3), stride=(2, 2), padding=(1, 1))
        (bn1): SyncBatchNorm(96, eps=1e-05, momentum=0.1, affine=True, track_running_stats=True)
        (conv2): Conv2d(96, 96, kernel_size=(3, 3), stride=(1, 1), padding=(1, 1))
        (bn2): SyncBatchNorm(96, eps=1e-05, momentum=0.1, affine=True, track_running_stats=True)
        (relu): ReLU()
        (downsample): Sequential(
          (0): Conv2d(64, 96, kernel_size=(1, 1), stride=(2, 2))
          (1): SyncBatchNorm(96, eps=1e-05, momentum=0.1, affine=True, track_running_stats=True)
        )
      )
      (1): BasicBlock(
        (conv1): Conv2d(96, 96, kernel_size=(3, 3), stride=(1, 1), padding=(1, 1))
        (bn1): SyncBatchNorm(96, eps=1e-05, momentum=0.1, affine=True, track_running_stats=True)
        (conv2): Conv2d(96, 96, kernel_size=(3, 3), stride=(1, 1), padding=(1, 1))
        (bn2): SyncBatchNorm(96, eps=1e-05, momentum=0.1, affine=True, track_running_stats=True)
        (relu): ReLU()
      )
    )
    (res_layer3): ResLayer(
      (0): BasicBlock(
        (conv1): Conv2d(96, 128, kernel_size=(3, 3), stride=(2, 2), padding=(1, 1))
        (bn1): SyncBatchNorm(128, eps=1e-05, momentum=0.1, affine=True, track_running_stats=True)
        (conv2): Conv2d(128, 128, kernel_size=(3, 3), stride=(1, 1), padding=(1, 1))
        (bn2): SyncBatchNorm(128, eps=1e-05, momentum=0.1, affine=True, track_running_stats=True)
        (relu): ReLU()
        (downsample): Sequential(
          (0): Conv2d(96, 128, kernel_size=(1, 1), stride=(2, 2))
          (1): SyncBatchNorm(128, eps=1e-05, momentum=0.1, affine=True, track_running_stats=True)
        )
      )
      (1): BasicBlock(
        (conv1): Conv2d(128, 128, kernel_size=(3, 3), stride=(1, 1), padding=(1, 1))
        (bn1): SyncBatchNorm(128, eps=1e-05, momentum=0.1, affine=True, track_running_stats=True)
        (conv2): Conv2d(128, 128, kernel_size=(3, 3), stride=(1, 1), padding=(1, 1))
        (bn2): SyncBatchNorm(128, eps=1e-05, momentum=0.1, affine=True, track_running_stats=True)
        (relu): ReLU()
      )
    )
  )
  init_cfg=[{'type': 'Kaiming', 'layer': ['Conv2d'], 'mode': 'fan_out', 'nonlinearity': 'relu'}, {'type': 'Constant', 'layer': ['SyncBatchNorm2d'], 'val': 1, 'bias': 0}]
)
2022-10-16 17:44:43,139 - mmflow - INFO - dataset size 400
…
