…
        mode='fan_in',
        bias=0))
work_dir = 'work_dir/pwcnetKitti_750k_schedule'
auto_resume = False
gpu_ids = [0]

2022-09-25 22:36:06,887 - mmflow - INFO - Set random seed to 463788837, deterministic: False
2022-09-25 22:36:07,036 - mmflow - INFO - initialize PWCNet with init_cfg {'type': 'Kaiming', 'nonlinearity': 'leaky_relu', 'layer': ['Conv2d', 'ConvTranspose2d'], 'mode': 'fan_in', 'bias': 0}
2022-09-25 22:36:07,125 - mmflow - INFO - PWCNet(
  (encoder): PWCNetEncoder(
    (layers): Sequential(
      (0): BasicConvBlock(
        (layers): Sequential(
          (0): ConvModule(
            (conv): Conv2d(3, 16, kernel_size=(3, 3), stride=(2, 2), padding=(1, 1))
            (activate): LeakyReLU(negative_slope=0.1, inplace=True)
          )
          (1): ConvModule(
            (conv): Conv2d(16, 16, kernel_size=(3, 3), stride=(1, 1), padding=(1, 1))
            (activate): LeakyReLU(negative_slope=0.1, inplace=True)
          )
          (2): ConvModule(
            (conv): Conv2d(16, 16, kernel_size=(3, 3), stride=(1, 1), padding=(1, 1))
            (activate): LeakyReLU(negative_slope=0.1, inplace=True)
          )
        )
      )
      (1): BasicConvBlock(
        (layers): Sequential(
          (0): ConvModule(
            (conv): Conv2d(16, 32, kernel_size=(3, 3), stride=(2, 2), padding=(1, 1))
            (activate): LeakyReLU(negative_slope=0.1, inplace=True)
          )
          (1): ConvModule(
            (conv): Conv2d(32, 32, kernel_size=(3, 3), stride=(1, 1), padding=(1, 1))
            (activate): LeakyReLU(negative_slope=0.1, inplace=True)
          )
          (2): ConvModule(
            (conv): Conv2d(32, 32, kernel_size=(3, 3), stride=(1, 1), padding=(1, 1))
            (activate): LeakyReLU(negative_slope=0.1, inplace=True)
          )
        )
      )
      (2): BasicConvBlock(
        (layers): Sequential(
          (0): ConvModule(
            (conv): Conv2d(32, 64, kernel_size=(3, 3), stride=(2, 2), padding=(1, 1))
            (activate): LeakyReLU(negative_slope=0.1, inplace=True)
          )
          (1): ConvModule(
            (conv): Conv2d(64, 64, kernel_size=(3, 3), stride=(1, 1), padding=(1, 1))
            (activate): LeakyReLU(negative_slope=0.1, inplace=True)
          )
          (2): ConvModule(
            (conv): Conv2d(64, 64, kernel_size=(3, 3), stride=(1, 1), padding=(1, 1))
            (activate): LeakyReLU(negative_slope=0.1, inplace=True)
          )
        )
      )
      (3): BasicConvBlock(
        (layers): Sequential(
          (0): ConvModule(
            (conv): Conv2d(64, 96, kernel_size=(3, 3), stride=(2, 2), padding=(1, 1))
            (activate): LeakyReLU(negative_slope=0.1, inplace=True)
          )
          (1): ConvModule(
            (conv): Conv2d(96, 96, kernel_size=(3, 3), stride=(1, 1), padding=(1, 1))
            (activate): LeakyReLU(negative_slope=0.1, inplace=True)
          )
          (2): ConvModule(
            (conv): Conv2d(96, 96, kernel_size=(3, 3), stride=(1, 1), padding=(1, 1))
            (activate): LeakyReLU(negative_slope=0.1, inplace=True)
          )
        )
      )
      (4): BasicConvBlock(
        (layers): Sequential(
          (0): ConvModule(
            (conv): Conv2d(96, 128, kernel_size=(3, 3), stride=(2, 2), padding=(1, 1))
            (activate): LeakyReLU(negative_slope=0.1, inplace=True)
          )
          (1): ConvModule(
            (conv): Conv2d(128, 128, kernel_size=(3, 3), stride=(1, 1), padding=(1, 1))
            (activate): LeakyReLU(negative_slope=0.1, inplace=True)
          )
          (2): ConvModule(
            (conv): Conv2d(128, 128, kernel_size=(3, 3), stride=(1, 1), padding=(1, 1))
            (activate): LeakyReLU(negative_slope=0.1, inplace=True)
          )
        )
      )
      (5): BasicConvBlock(
        (layers): Sequential(
          (0): ConvModule(
            (conv): Conv2d(128, 196, kernel_size=(3, 3), stride=(2, 2), padding=(1, 1))
            (activate): LeakyReLU(negative_slope=0.1, inplace=True)
          )
          (1): ConvModule(
            (conv): Conv2d(196, 196, kernel_size=(3, 3), stride=(1, 1), padding=(1, 1))
            (activate): LeakyReLU(negative_slope=0.1, inplace=True)
          )
          (2): ConvModule(
            (conv): Conv2d(196, 196, kernel_size=(3, 3), stride=(1, 1), padding=(1, 1))
            (activate): LeakyReLU(negative_slope=0.1, inplace=True)
          )
        )
      )
    )
  )
  (decoder): PWCNetDecoder(
    (flow_loss): MultiLevelEPE(resize_flow=upsample, scale_as_level=False, flow_div=20.0, weights={'level2': 0.005, 'level3': 0.01, 'level4': 0.02, 'level5': 0.08, 'level6': 0.32}, p=1, q=0.4, eps=0.01, reduction='sum')
    (corr_block): CorrBlock()
    scaled=False
    scale_mode=dimension
    (warp): Warp(mode=bilinear, padding_mode=zeros, align_corners=True,use_mask=True)
    (post_processor): ContextNet(
      (layers): Sequential(
        (0): ConvModule(
          (conv): Conv2d(565, 128, kernel_size=(3, 3), stride=(1, 1), padding=(1, 1))
          (activate): LeakyReLU(negative_slope=0.1, inplace=True)
        )
        (1): ConvModule(
          (conv): Conv2d(128, 128, kernel_size=(3, 3), stride=(1, 1), padding=(2, 2), dilation=(2, 2))
          (activate): LeakyReLU(negative_slope=0.1, inplace=True)
        )
        (2): ConvModule(
          (conv): Conv2d(128, 128, kernel_size=(3, 3), stride=(1, 1), padding=(4, 4), dilation=(4, 4))
          (activate): LeakyReLU(negative_slope=0.1, inplace=True)
        )
        (3): ConvModule(
          (conv): Conv2d(128, 96, kernel_size=(3, 3), stride=(1, 1), padding=(8, 8), dilation=(8, 8))
          (activate): LeakyReLU(negative_slope=0.1, inplace=True)
        )
        (4): ConvModule(
          (conv): Conv2d(96, 64, kernel_size=(3, 3), stride=(1, 1), padding=(16, 16), dilation=(16, 16))
          (activate): LeakyReLU(negative_slope=0.1, inplace=True)
        )
        (5): ConvModule(
          (conv): Conv2d(64, 32, kernel_size=(3, 3), stride=(1, 1), padding=(1, 1))
          (activate): LeakyReLU(negative_slope=0.1, inplace=True)
        )
        (6): Conv2d(32, 2, kernel_size=(3, 3), stride=(1, 1), padding=(1, 1))
      )
    )
    (decoders): ModuleDict(
      (level2): PWCModule(
        (dense_net): BasicDenseBlock(
          (layers): Sequential(
            (0): DenseLayer(
              (layers): ConvModule(
                (conv): Conv2d(117, 128, kernel_size=(3, 3), stride=(1, 1), padding=(1, 1))
                (activate): LeakyReLU(negative_slope=0.1, inplace=True)
              )
            )
            (1): DenseLayer(
              (layers): ConvModule(
                (conv): Conv2d(245, 128, kernel_size=(3, 3), stride=(1, 1), padding=(1, 1))
                (activate): LeakyReLU(negative_slope=0.1, inplace=True)
              )
            )
            (2): DenseLayer(
              (layers): ConvModule(
                (conv): Conv2d(373, 96, kernel_size=(3, 3), stride=(1, 1), padding=(1, 1))
                (activate): LeakyReLU(negative_slope=0.1, inplace=True)
              )
            )
            (3): DenseLayer(
              (layers): ConvModule(
                (conv): Conv2d(469, 64, kernel_size=(3, 3), stride=(1, 1), padding=(1, 1))
                (activate): LeakyReLU(negative_slope=0.1, inplace=True)
              )
            )
            (4): DenseLayer(
              (layers): ConvModule(
                (conv): Conv2d(533, 32, kernel_size=(3, 3), stride=(1, 1), padding=(1, 1))
                (activate): LeakyReLU(negative_slope=0.1, inplace=True)
              )
            )
          )
        )
        (predict_layer): Conv2d(565, 2, kernel_size=(3, 3), stride=(1, 1), padding=(1, 1))
      )
      (level3): PWCModule(
        (dense_net): BasicDenseBlock(
          (layers): Sequential(
            (0): DenseLayer(
              (layers): ConvModule(
                (conv): Conv2d(149, 128, kernel_size=(3, 3), stride=(1, 1), padding=(1, 1))
                (activate): LeakyReLU(negative_slope=0.1, inplace=True)
              )
            )
            (1): DenseLayer(
              (layers): ConvModule(
                (conv): Conv2d(277, 128, kernel_size=(3, 3), stride=(1, 1), padding=(1, 1))
                (activate): LeakyReLU(negative_slope=0.1, inplace=True)
              )
            )
            (2): DenseLayer(
              (layers): ConvModule(
                (conv): Conv2d(405, 96, kernel_size=(3, 3), stride=(1, 1), padding=(1, 1))
                (activate): LeakyReLU(negative_slope=0.1, inplace=True)
              )
            )
            (3): DenseLayer(
              (layers): ConvModule(
                (conv): Conv2d(501, 64, kernel_size=(3, 3), stride=(1, 1), padding=(1, 1))
                (activate): LeakyReLU(negative_slope=0.1, inplace=True)
              )
            )
            (4): DenseLayer(
              (layers): ConvModule(
                (conv): Conv2d(565, 32, kernel_size=(3, 3), stride=(1, 1), padding=(1, 1))
                (activate): LeakyReLU(negative_slope=0.1, inplace=True)
              )
            )
          )
        )
        (predict_layer): Conv2d(597, 2, kernel_size=(3, 3), stride=(1, 1), padding=(1, 1))
        (upflow_layer): ConvTranspose2d(2, 2, kernel_size=(4, 4), stride=(2, 2), padding=(1, 1))
        (upfeat_layer): ConvTranspose2d(597, 2, kernel_size=(4, 4), stride=(2, 2), padding=(1, 1))
      )
      (level4): PWCModule(
        (dense_net): BasicDenseBlock(
          (layers): Sequential(
            (0): DenseLayer(
              (layers): ConvModule(
                (conv): Conv2d(181, 128, kernel_size=(3, 3), stride=(1, 1), padding=(1, 1))
                (activate): LeakyReLU(negative_slope=0.1, inplace=True)
              )
            )
            (1): DenseLayer(
              (layers): ConvModule(
                (conv): Conv2d(309, 128, kernel_size=(3, 3), stride=(1, 1), padding=(1, 1))
                (activate): LeakyReLU(negative_slope=0.1, inplace=True)
              )
            )
            (2): DenseLayer(
              (layers): ConvModule(
                (conv): Conv2d(437, 96, kernel_size=(3, 3), stride=(1, 1), padding=(1, 1))
                (activate): LeakyReLU(negative_slope=0.1, inplace=True)
              )
            )
            (3): DenseLayer(
              (layers): ConvModule(
                (conv): Conv2d(533, 64, kernel_size=(3, 3), stride=(1, 1), padding=(1, 1))
                (activate): LeakyReLU(negative_slope=0.1, inplace=True)
              )
            )
            (4): DenseLayer(
              (layers): ConvModule(
                (conv): Conv2d(597, 32, kernel_size=(3, 3), stride=(1, 1), padding=(1, 1))
                (activate): LeakyReLU(negative_slope=0.1, inplace=True)
              )
            )
          )
        )
        (predict_layer): Conv2d(629, 2, kernel_size=(3, 3), stride=(1, 1), padding=(1, 1))
        (upflow_layer): ConvTranspose2d(2, 2, kernel_size=(4, 4), stride=(2, 2), padding=(1, 1))
        (upfeat_layer): ConvTranspose2d(629, 2, kernel_size=(4, 4), stride=(2, 2), padding=(1, 1))
      )
      (level5): PWCModule(
        (dense_net): BasicDenseBlock(
          (layers): Sequential(
            (0): DenseLayer(
              (layers): ConvModule(
                (conv): Conv2d(213, 128, kernel_size=(3, 3), stride=(1, 1), padding=(1, 1))
                (activate): LeakyReLU(negative_slope=0.1, inplace=True)
              )
            )
            (1): DenseLayer(
              (layers): ConvModule(
                (conv): Conv2d(341, 128, kernel_size=(3, 3), stride=(1, 1), padding=(1, 1))
                (activate): LeakyReLU(negative_slope=0.1, inplace=True)
              )
            )
            (2): DenseLayer(
              (layers): ConvModule(
                (conv): Conv2d(469, 96, kernel_size=(3, 3), stride=(1, 1), padding=(1, 1))
                (activate): LeakyReLU(negative_slope=0.1, inplace=True)
              )
            )
            (3): DenseLayer(
              (layers): ConvModule(
                (conv): Conv2d(565, 64, kernel_size=(3, 3), stride=(1, 1), padding=(1, 1))
                (activate): LeakyReLU(negative_slope=0.1, inplace=True)
              )
            )
            (4): DenseLayer(
              (layers): ConvModule(
                (conv): Conv2d(629, 32, kernel_size=(3, 3), stride=(1, 1), padding=(1, 1))
                (activate): LeakyReLU(negative_slope=0.1, inplace=True)
              )
            )
          )
        )
        (predict_layer): Conv2d(661, 2, kernel_size=(3, 3), stride=(1, 1), padding=(1, 1))
        (upflow_layer): ConvTranspose2d(2, 2, kernel_size=(4, 4), stride=(2, 2), padding=(1, 1))
        (upfeat_layer): ConvTranspose2d(661, 2, kernel_size=(4, 4), stride=(2, 2), padding=(1, 1))
      )
      (level6): PWCModule(
        (dense_net): BasicDenseBlock(
          (layers): Sequential(
            (0): DenseLayer(
              (layers): ConvModule(
                (conv): Conv2d(81, 128, kernel_size=(3, 3), stride=(1, 1), padding=(1, 1))
                (activate): LeakyReLU(negative_slope=0.1, inplace=True)
              )
            )
            (1): DenseLayer(
              (layers): ConvModule(
                (conv): Conv2d(209, 128, kernel_size=(3, 3), stride=(1, 1), padding=(1, 1))
                (activate): LeakyReLU(negative_slope=0.1, inplace=True)
              )
            )
            (2): DenseLayer(
              (layers): ConvModule(
                (conv): Conv2d(337, 96, kernel_size=(3, 3), stride=(1, 1), padding=(1, 1))
                (activate): LeakyReLU(negative_slope=0.1, inplace=True)
              )
            )
            (3): DenseLayer(
              (layers): ConvModule(
                (conv): Conv2d(433, 64, kernel_size=(3, 3), stride=(1, 1), padding=(1, 1))
                (activate): LeakyReLU(negative_slope=0.1, inplace=True)
              )
            )
            (4): DenseLayer(
              (layers): ConvModule(
                (conv): Conv2d(497, 32, kernel_size=(3, 3), stride=(1, 1), padding=(1, 1))
                (activate): LeakyReLU(negative_slope=0.1, inplace=True)
              )
            )
          )
        )
        (predict_layer): Conv2d(529, 2, kernel_size=(3, 3), stride=(1, 1), padding=(1, 1))
        (upflow_layer): ConvTranspose2d(2, 2, kernel_size=(4, 4), stride=(2, 2), padding=(1, 1))
        (upfeat_layer): ConvTranspose2d(529, 2, kernel_size=(4, 4), stride=(2, 2), padding=(1, 1))
      )
    )
  )
)
init_cfg={'type': 'Kaiming', 'nonlinearity': 'leaky_relu', 'layer': ['Conv2d', 'ConvTranspose2d'], 'mode': 'fan_in', 'bias': 0}
2022-09-25 22:36:07,884 - mmflow - INFO - dataset size 400
/home/s.starace/FlowNets/mmflow/mmflow/apis/train.py:132: UserWarning: SyncBN is only supported with DDP. To be compatible with DP, we convert SyncBN to BN. Please use dist_train.sh which can avoid this error.
…
